meta_info_def {
  stripped_op_list {
    op {
      name: "Add"
      input_arg {
        name: "x"
        type_attr: "T"
      }
      input_arg {
        name: "y"
        type_attr: "T"
      }
      output_arg {
        name: "z"
        type_attr: "T"
      }
      attr {
        name: "T"
        type: "type"
        allowed_values {
          list {
            type: DT_HALF
            type: DT_FLOAT
            type: DT_DOUBLE
            type: DT_UINT8
            type: DT_INT8
            type: DT_INT16
            type: DT_INT32
            type: DT_INT64
            type: DT_COMPLEX64
            type: DT_COMPLEX128
            type: DT_STRING
          }
        }
      }
    }
    op {
      name: "Assign"
      input_arg {
        name: "ref"
        type_attr: "T"
        is_ref: true
      }
      input_arg {
        name: "value"
        type_attr: "T"
      }
      output_arg {
        name: "output_ref"
        type_attr: "T"
        is_ref: true
      }
      attr {
        name: "T"
        type: "type"
      }
      attr {
        name: "validate_shape"
        type: "bool"
        default_value {
          b: true
        }
      }
      attr {
        name: "use_locking"
        type: "bool"
        default_value {
          b: true
        }
      }
      allows_uninitialized_input: true
    }
    op {
      name: "Const"
      output_arg {
        name: "output"
        type_attr: "dtype"
      }
      attr {
        name: "value"
        type: "tensor"
      }
      attr {
        name: "dtype"
        type: "type"
      }
    }
    op {
      name: "Identity"
      input_arg {
        name: "input"
        type_attr: "T"
      }
      output_arg {
        name: "output"
        type_attr: "T"
      }
      attr {
        name: "T"
        type: "type"
      }
    }
    op {
      name: "MatMul"
      input_arg {
        name: "a"
        type_attr: "T"
      }
      input_arg {
        name: "b"
        type_attr: "T"
      }
      output_arg {
        name: "product"
        type_attr: "T"
      }
      attr {
        name: "transpose_a"
        type: "bool"
        default_value {
          b: false
        }
      }
      attr {
        name: "transpose_b"
        type: "bool"
        default_value {
          b: false
        }
      }
      attr {
        name: "T"
        type: "type"
        allowed_values {
          list {
            type: DT_HALF
            type: DT_FLOAT
            type: DT_DOUBLE
            type: DT_INT32
            type: DT_COMPLEX64
            type: DT_COMPLEX128
          }
        }
      }
    }
    op {
      name: "Mul"
      input_arg {
        name: "x"
        type_attr: "T"
      }
      input_arg {
        name: "y"
        type_attr: "T"
      }
      output_arg {
        name: "z"
        type_attr: "T"
      }
      attr {
        name: "T"
        type: "type"
        allowed_values {
          list {
            type: DT_HALF
            type: DT_FLOAT
            type: DT_DOUBLE
            type: DT_UINT8
            type: DT_INT8
            type: DT_UINT16
            type: DT_INT16
            type: DT_INT32
            type: DT_INT64
            type: DT_COMPLEX64
            type: DT_COMPLEX128
          }
        }
      }
      is_commutative: true
    }
    op {
      name: "NoOp"
    }
    op {
      name: "RandomUniform"
      input_arg {
        name: "shape"
        type_attr: "T"
      }
      output_arg {
        name: "output"
        type_attr: "dtype"
      }
      attr {
        name: "seed"
        type: "int"
        default_value {
          i: 0
        }
      }
      attr {
        name: "seed2"
        type: "int"
        default_value {
          i: 0
        }
      }
      attr {
        name: "dtype"
        type: "type"
        allowed_values {
          list {
            type: DT_HALF
            type: DT_FLOAT
            type: DT_DOUBLE
          }
        }
      }
      attr {
        name: "T"
        type: "type"
        allowed_values {
          list {
            type: DT_INT32
            type: DT_INT64
          }
        }
      }
      is_stateful: true
    }
    op {
      name: "Range"
      input_arg {
        name: "start"
        type_attr: "Tidx"
      }
      input_arg {
        name: "limit"
        type_attr: "Tidx"
      }
      input_arg {
        name: "delta"
        type_attr: "Tidx"
      }
      output_arg {
        name: "output"
        type_attr: "Tidx"
      }
      attr {
        name: "Tidx"
        type: "type"
        default_value {
          type: DT_INT32
        }
        allowed_values {
          list {
            type: DT_FLOAT
            type: DT_DOUBLE
            type: DT_INT32
            type: DT_INT64
          }
        }
      }
    }
    op {
      name: "Rank"
      input_arg {
        name: "input"
        type_attr: "T"
      }
      output_arg {
        name: "output"
        type: DT_INT32
      }
      attr {
        name: "T"
        type: "type"
      }
    }
    op {
      name: "RestoreV2"
      input_arg {
        name: "prefix"
        type: DT_STRING
      }
      input_arg {
        name: "tensor_names"
        type: DT_STRING
      }
      input_arg {
        name: "shape_and_slices"
        type: DT_STRING
      }
      output_arg {
        name: "tensors"
        type_list_attr: "dtypes"
      }
      attr {
        name: "dtypes"
        type: "list(type)"
        has_minimum: true
        minimum: 1
      }
      is_stateful: true
    }
    op {
      name: "SaveV2"
      input_arg {
        name: "prefix"
        type: DT_STRING
      }
      input_arg {
        name: "tensor_names"
        type: DT_STRING
      }
      input_arg {
        name: "shape_and_slices"
        type: DT_STRING
      }
      input_arg {
        name: "tensors"
        type_list_attr: "dtypes"
      }
      attr {
        name: "dtypes"
        type: "list(type)"
        has_minimum: true
        minimum: 1
      }
      is_stateful: true
    }
    op {
      name: "Sub"
      input_arg {
        name: "x"
        type_attr: "T"
      }
      input_arg {
        name: "y"
        type_attr: "T"
      }
      output_arg {
        name: "z"
        type_attr: "T"
      }
      attr {
        name: "T"
        type: "type"
        allowed_values {
          list {
            type: DT_HALF
            type: DT_FLOAT
            type: DT_DOUBLE
            type: DT_INT32
            type: DT_INT64
            type: DT_COMPLEX64
            type: DT_COMPLEX128
          }
        }
      }
    }
    op {
      name: "Transpose"
      input_arg {
        name: "x"
        type_attr: "T"
      }
      input_arg {
        name: "perm"
        type_attr: "Tperm"
      }
      output_arg {
        name: "y"
        type_attr: "T"
      }
      attr {
        name: "T"
        type: "type"
      }
      attr {
        name: "Tperm"
        type: "type"
        default_value {
          type: DT_INT32
        }
        allowed_values {
          list {
            type: DT_INT32
            type: DT_INT64
          }
        }
      }
    }
    op {
      name: "VariableV2"
      output_arg {
        name: "ref"
        type_attr: "dtype"
        is_ref: true
      }
      attr {
        name: "shape"
        type: "shape"
      }
      attr {
        name: "dtype"
        type: "type"
      }
      attr {
        name: "container"
        type: "string"
        default_value {
          s: ""
        }
      }
      attr {
        name: "shared_name"
        type: "string"
        default_value {
          s: ""
        }
      }
      is_stateful: true
    }
  }
  tensorflow_version: "1.3.0"
  tensorflow_git_version: "v1.3.0-rc2-20-g0787eee"
}
graph_def {
  node {
    name: "W/Initializer/random_uniform/shape"
    op: "Const"
    attr {
      key: "_class"
      value {
        list {
          s: "loc:@W"
        }
      }
    }
    attr {
      key: "_output_shapes"
      value {
        list {
          shape {
            dim {
              size: 2
            }
          }
        }
      }
    }
    attr {
      key: "dtype"
      value {
        type: DT_INT32
      }
    }
    attr {
      key: "value"
      value {
        tensor {
          dtype: DT_INT32
          tensor_shape {
            dim {
              size: 2
            }
          }
          tensor_content: "\002\000\000\000\003\000\000\000"
        }
      }
    }
  }
  node {
    name: "W/Initializer/random_uniform/min"
    op: "Const"
    attr {
      key: "_class"
      value {
        list {
          s: "loc:@W"
        }
      }
    }
    attr {
      key: "_output_shapes"
      value {
        list {
          shape {
          }
        }
      }
    }
    attr {
      key: "dtype"
      value {
        type: DT_FLOAT
      }
    }
    attr {
      key: "value"
      value {
        tensor {
          dtype: DT_FLOAT
          tensor_shape {
          }
          float_val: -1.095445156097412
        }
      }
    }
  }
  node {
    name: "W/Initializer/random_uniform/max"
    op: "Const"
    attr {
      key: "_class"
      value {
        list {
          s: "loc:@W"
        }
      }
    }
    attr {
      key: "_output_shapes"
      value {
        list {
          shape {
          }
        }
      }
    }
    attr {
      key: "dtype"
      value {
        type: DT_FLOAT
      }
    }
    attr {
      key: "value"
      value {
        tensor {
          dtype: DT_FLOAT
          tensor_shape {
          }
          float_val: 1.095445156097412
        }
      }
    }
  }
  node {
    name: "W/Initializer/random_uniform/RandomUniform"
    op: "RandomUniform"
    input: "W/Initializer/random_uniform/shape"
    attr {
      key: "T"
      value {
        type: DT_INT32
      }
    }
    attr {
      key: "_class"
      value {
        list {
          s: "loc:@W"
        }
      }
    }
    attr {
      key: "_output_shapes"
      value {
        list {
          shape {
            dim {
              size: 2
            }
            dim {
              size: 3
            }
          }
        }
      }
    }
    attr {
      key: "dtype"
      value {
        type: DT_FLOAT
      }
    }
    attr {
      key: "seed"
      value {
        i: 0
      }
    }
    attr {
      key: "seed2"
      value {
        i: 0
      }
    }
  }
  node {
    name: "W/Initializer/random_uniform/sub"
    op: "Sub"
    input: "W/Initializer/random_uniform/max"
    input: "W/Initializer/random_uniform/min"
    attr {
      key: "T"
      value {
        type: DT_FLOAT
      }
    }
    attr {
      key: "_class"
      value {
        list {
          s: "loc:@W"
        }
      }
    }
    attr {
      key: "_output_shapes"
      value {
        list {
          shape {
          }
        }
      }
    }
  }
  node {
    name: "W/Initializer/random_uniform/mul"
    op: "Mul"
    input: "W/Initializer/random_uniform/RandomUniform"
    input: "W/Initializer/random_uniform/sub"
    attr {
      key: "T"
      value {
        type: DT_FLOAT
      }
    }
    attr {
      key: "_class"
      value {
        list {
          s: "loc:@W"
        }
      }
    }
    attr {
      key: "_output_shapes"
      value {
        list {
          shape {
            dim {
              size: 2
            }
            dim {
              size: 3
            }
          }
        }
      }
    }
  }
  node {
    name: "W/Initializer/random_uniform"
    op: "Add"
    input: "W/Initializer/random_uniform/mul"
    input: "W/Initializer/random_uniform/min"
    attr {
      key: "T"
      value {
        type: DT_FLOAT
      }
    }
    attr {
      key: "_class"
      value {
        list {
          s: "loc:@W"
        }
      }
    }
    attr {
      key: "_output_shapes"
      value {
        list {
          shape {
            dim {
              size: 2
            }
            dim {
              size: 3
            }
          }
        }
      }
    }
  }
  node {
    name: "W"
    op: "VariableV2"
    attr {
      key: "_class"
      value {
        list {
          s: "loc:@W"
        }
      }
    }
    attr {
      key: "_output_shapes"
      value {
        list {
          shape {
            dim {
              size: 2
            }
            dim {
              size: 3
            }
          }
        }
      }
    }
    attr {
      key: "container"
      value {
        s: ""
      }
    }
    attr {
      key: "dtype"
      value {
        type: DT_FLOAT
      }
    }
    attr {
      key: "shape"
      value {
        shape {
          dim {
            size: 2
          }
          dim {
            size: 3
          }
        }
      }
    }
    attr {
      key: "shared_name"
      value {
        s: ""
      }
    }
  }
  node {
    name: "W/Assign"
    op: "Assign"
    input: "W"
    input: "W/Initializer/random_uniform"
    attr {
      key: "T"
      value {
        type: DT_FLOAT
      }
    }
    attr {
      key: "_class"
      value {
        list {
          s: "loc:@W"
        }
      }
    }
    attr {
      key: "_output_shapes"
      value {
        list {
          shape {
            dim {
              size: 2
            }
            dim {
              size: 3
            }
          }
        }
      }
    }
    attr {
      key: "use_locking"
      value {
        b: true
      }
    }
    attr {
      key: "validate_shape"
      value {
        b: true
      }
    }
  }
  node {
    name: "W/read"
    op: "Identity"
    input: "W"
    attr {
      key: "T"
      value {
        type: DT_FLOAT
      }
    }
    attr {
      key: "_class"
      value {
        list {
          s: "loc:@W"
        }
      }
    }
    attr {
      key: "_output_shapes"
      value {
        list {
          shape {
            dim {
              size: 2
            }
            dim {
              size: 3
            }
          }
        }
      }
    }
  }
  node {
    name: "W_1/initial_value"
    op: "Const"
    attr {
      key: "_output_shapes"
      value {
        list {
          shape {
            dim {
              size: 2
            }
            dim {
              size: 3
            }
          }
        }
      }
    }
    attr {
      key: "dtype"
      value {
        type: DT_FLOAT
      }
    }
    attr {
      key: "value"
      value {
        tensor {
          dtype: DT_FLOAT
          tensor_shape {
            dim {
              size: 2
            }
            dim {
              size: 3
            }
          }
          tensor_content: "\000\000\200?\000\000\200?\000\000\200?\000\000\000@\000\000\000@\000\000\000@"
        }
      }
    }
  }
  node {
    name: "W_1"
    op: "VariableV2"
    attr {
      key: "_output_shapes"
      value {
        list {
          shape {
            dim {
              size: 2
            }
            dim {
              size: 3
            }
          }
        }
      }
    }
    attr {
      key: "container"
      value {
        s: ""
      }
    }
    attr {
      key: "dtype"
      value {
        type: DT_FLOAT
      }
    }
    attr {
      key: "shape"
      value {
        shape {
          dim {
            size: 2
          }
          dim {
            size: 3
          }
        }
      }
    }
    attr {
      key: "shared_name"
      value {
        s: ""
      }
    }
  }
  node {
    name: "W_1/Assign"
    op: "Assign"
    input: "W_1"
    input: "W_1/initial_value"
    attr {
      key: "T"
      value {
        type: DT_FLOAT
      }
    }
    attr {
      key: "_class"
      value {
        list {
          s: "loc:@W_1"
        }
      }
    }
    attr {
      key: "_output_shapes"
      value {
        list {
          shape {
            dim {
              size: 2
            }
            dim {
              size: 3
            }
          }
        }
      }
    }
    attr {
      key: "use_locking"
      value {
        b: true
      }
    }
    attr {
      key: "validate_shape"
      value {
        b: true
      }
    }
  }
  node {
    name: "W_1/read"
    op: "Identity"
    input: "W_1"
    attr {
      key: "T"
      value {
        type: DT_FLOAT
      }
    }
    attr {
      key: "_class"
      value {
        list {
          s: "loc:@W_1"
        }
      }
    }
    attr {
      key: "_output_shapes"
      value {
        list {
          shape {
            dim {
              size: 2
            }
            dim {
              size: 3
            }
          }
        }
      }
    }
  }
  node {
    name: "b/initial_value"
    op: "Const"
    attr {
      key: "_output_shapes"
      value {
        list {
          shape {
            dim {
              size: 1
            }
            dim {
              size: 3
            }
          }
        }
      }
    }
    attr {
      key: "dtype"
      value {
        type: DT_FLOAT
      }
    }
    attr {
      key: "value"
      value {
        tensor {
          dtype: DT_FLOAT
          tensor_shape {
            dim {
              size: 1
            }
            dim {
              size: 3
            }
          }
          tensor_content: "\000\000\000\000\000\000\200?\000\000\000@"
        }
      }
    }
  }
  node {
    name: "b"
    op: "VariableV2"
    attr {
      key: "_output_shapes"
      value {
        list {
          shape {
            dim {
              size: 1
            }
            dim {
              size: 3
            }
          }
        }
      }
    }
    attr {
      key: "container"
      value {
        s: ""
      }
    }
    attr {
      key: "dtype"
      value {
        type: DT_FLOAT
      }
    }
    attr {
      key: "shape"
      value {
        shape {
          dim {
            size: 1
          }
          dim {
            size: 3
          }
        }
      }
    }
    attr {
      key: "shared_name"
      value {
        s: ""
      }
    }
  }
  node {
    name: "b/Assign"
    op: "Assign"
    input: "b"
    input: "b/initial_value"
    attr {
      key: "T"
      value {
        type: DT_FLOAT
      }
    }
    attr {
      key: "_class"
      value {
        list {
          s: "loc:@b"
        }
      }
    }
    attr {
      key: "_output_shapes"
      value {
        list {
          shape {
            dim {
              size: 1
            }
            dim {
              size: 3
            }
          }
        }
      }
    }
    attr {
      key: "use_locking"
      value {
        b: true
      }
    }
    attr {
      key: "validate_shape"
      value {
        b: true
      }
    }
  }
  node {
    name: "b/read"
    op: "Identity"
    input: "b"
    attr {
      key: "T"
      value {
        type: DT_FLOAT
      }
    }
    attr {
      key: "_class"
      value {
        list {
          s: "loc:@b"
        }
      }
    }
    attr {
      key: "_output_shapes"
      value {
        list {
          shape {
            dim {
              size: 1
            }
            dim {
              size: 3
            }
          }
        }
      }
    }
  }
  node {
    name: "transpose/Rank"
    op: "Rank"
    input: "b/read"
    attr {
      key: "T"
      value {
        type: DT_FLOAT
      }
    }
    attr {
      key: "_output_shapes"
      value {
        list {
          shape {
          }
        }
      }
    }
  }
  node {
    name: "transpose/sub/y"
    op: "Const"
    attr {
      key: "_output_shapes"
      value {
        list {
          shape {
          }
        }
      }
    }
    attr {
      key: "dtype"
      value {
        type: DT_INT32
      }
    }
    attr {
      key: "value"
      value {
        tensor {
          dtype: DT_INT32
          tensor_shape {
          }
          int_val: 1
        }
      }
    }
  }
  node {
    name: "transpose/sub"
    op: "Sub"
    input: "transpose/Rank"
    input: "transpose/sub/y"
    attr {
      key: "T"
      value {
        type: DT_INT32
      }
    }
    attr {
      key: "_output_shapes"
      value {
        list {
          shape {
          }
        }
      }
    }
  }
  node {
    name: "transpose/Range/start"
    op: "Const"
    attr {
      key: "_output_shapes"
      value {
        list {
          shape {
          }
        }
      }
    }
    attr {
      key: "dtype"
      value {
        type: DT_INT32
      }
    }
    attr {
      key: "value"
      value {
        tensor {
          dtype: DT_INT32
          tensor_shape {
          }
          int_val: 0
        }
      }
    }
  }
  node {
    name: "transpose/Range/delta"
    op: "Const"
    attr {
      key: "_output_shapes"
      value {
        list {
          shape {
          }
        }
      }
    }
    attr {
      key: "dtype"
      value {
        type: DT_INT32
      }
    }
    attr {
      key: "value"
      value {
        tensor {
          dtype: DT_INT32
          tensor_shape {
          }
          int_val: 1
        }
      }
    }
  }
  node {
    name: "transpose/Range"
    op: "Range"
    input: "transpose/Range/start"
    input: "transpose/Rank"
    input: "transpose/Range/delta"
    attr {
      key: "Tidx"
      value {
        type: DT_INT32
      }
    }
    attr {
      key: "_output_shapes"
      value {
        list {
          shape {
            dim {
              size: 2
            }
          }
        }
      }
    }
  }
  node {
    name: "transpose/sub_1"
    op: "Sub"
    input: "transpose/sub"
    input: "transpose/Range"
    attr {
      key: "T"
      value {
        type: DT_INT32
      }
    }
    attr {
      key: "_output_shapes"
      value {
        list {
          shape {
            dim {
              size: 2
            }
          }
        }
      }
    }
  }
  node {
    name: "transpose"
    op: "Transpose"
    input: "b/read"
    input: "transpose/sub_1"
    attr {
      key: "T"
      value {
        type: DT_FLOAT
      }
    }
    attr {
      key: "Tperm"
      value {
        type: DT_INT32
      }
    }
    attr {
      key: "_output_shapes"
      value {
        list {
          shape {
            dim {
              size: 3
            }
            dim {
              size: 1
            }
          }
        }
      }
    }
  }
  node {
    name: "MatMul"
    op: "MatMul"
    input: "W_1/read"
    input: "transpose"
    attr {
      key: "T"
      value {
        type: DT_FLOAT
      }
    }
    attr {
      key: "_output_shapes"
      value {
        list {
          shape {
            dim {
              size: 2
            }
            dim {
              size: 1
            }
          }
        }
      }
    }
    attr {
      key: "transpose_a"
      value {
        b: false
      }
    }
    attr {
      key: "transpose_b"
      value {
        b: false
      }
    }
  }
  node {
    name: "add/y"
    op: "Const"
    attr {
      key: "_output_shapes"
      value {
        list {
          shape {
          }
        }
      }
    }
    attr {
      key: "dtype"
      value {
        type: DT_FLOAT
      }
    }
    attr {
      key: "value"
      value {
        tensor {
          dtype: DT_FLOAT
          tensor_shape {
          }
          float_val: 1.0
        }
      }
    }
  }
  node {
    name: "add"
    op: "Add"
    input: "transpose"
    input: "add/y"
    attr {
      key: "T"
      value {
        type: DT_FLOAT
      }
    }
    attr {
      key: "_output_shapes"
      value {
        list {
          shape {
            dim {
              size: 3
            }
            dim {
              size: 1
            }
          }
        }
      }
    }
  }
  node {
    name: "save/Const"
    op: "Const"
    attr {
      key: "_output_shapes"
      value {
        list {
          shape {
          }
        }
      }
    }
    attr {
      key: "dtype"
      value {
        type: DT_STRING
      }
    }
    attr {
      key: "value"
      value {
        tensor {
          dtype: DT_STRING
          tensor_shape {
          }
          string_val: "model"
        }
      }
    }
  }
  node {
    name: "save/SaveV2/tensor_names"
    op: "Const"
    attr {
      key: "_output_shapes"
      value {
        list {
          shape {
            dim {
              size: 3
            }
          }
        }
      }
    }
    attr {
      key: "dtype"
      value {
        type: DT_STRING
      }
    }
    attr {
      key: "value"
      value {
        tensor {
          dtype: DT_STRING
          tensor_shape {
            dim {
              size: 3
            }
          }
          string_val: "W"
          string_val: "W_1"
          string_val: "b"
        }
      }
    }
  }
  node {
    name: "save/SaveV2/shape_and_slices"
    op: "Const"
    attr {
      key: "_output_shapes"
      value {
        list {
          shape {
            dim {
              size: 3
            }
          }
        }
      }
    }
    attr {
      key: "dtype"
      value {
        type: DT_STRING
      }
    }
    attr {
      key: "value"
      value {
        tensor {
          dtype: DT_STRING
          tensor_shape {
            dim {
              size: 3
            }
          }
          string_val: ""
          string_val: ""
          string_val: ""
        }
      }
    }
  }
  node {
    name: "save/SaveV2"
    op: "SaveV2"
    input: "save/Const"
    input: "save/SaveV2/tensor_names"
    input: "save/SaveV2/shape_and_slices"
    input: "W"
    input: "W_1"
    input: "b"
    attr {
      key: "dtypes"
      value {
        list {
          type: DT_FLOAT
          type: DT_FLOAT
          type: DT_FLOAT
        }
      }
    }
  }
  node {
    name: "save/control_dependency"
    op: "Identity"
    input: "save/Const"
    input: "^save/SaveV2"
    attr {
      key: "T"
      value {
        type: DT_STRING
      }
    }
    attr {
      key: "_class"
      value {
        list {
          s: "loc:@save/Const"
        }
      }
    }
    attr {
      key: "_output_shapes"
      value {
        list {
          shape {
          }
        }
      }
    }
  }
  node {
    name: "save/RestoreV2/tensor_names"
    op: "Const"
    attr {
      key: "_output_shapes"
      value {
        list {
          shape {
            dim {
              size: 1
            }
          }
        }
      }
    }
    attr {
      key: "dtype"
      value {
        type: DT_STRING
      }
    }
    attr {
      key: "value"
      value {
        tensor {
          dtype: DT_STRING
          tensor_shape {
            dim {
              size: 1
            }
          }
          string_val: "W"
        }
      }
    }
  }
  node {
    name: "save/RestoreV2/shape_and_slices"
    op: "Const"
    attr {
      key: "_output_shapes"
      value {
        list {
          shape {
            dim {
              size: 1
            }
          }
        }
      }
    }
    attr {
      key: "dtype"
      value {
        type: DT_STRING
      }
    }
    attr {
      key: "value"
      value {
        tensor {
          dtype: DT_STRING
          tensor_shape {
            dim {
              size: 1
            }
          }
          string_val: ""
        }
      }
    }
  }
  node {
    name: "save/RestoreV2"
    op: "RestoreV2"
    input: "save/Const"
    input: "save/RestoreV2/tensor_names"
    input: "save/RestoreV2/shape_and_slices"
    attr {
      key: "_output_shapes"
      value {
        list {
          shape {
            unknown_rank: true
          }
        }
      }
    }
    attr {
      key: "dtypes"
      value {
        list {
          type: DT_FLOAT
        }
      }
    }
  }
  node {
    name: "save/Assign"
    op: "Assign"
    input: "W"
    input: "save/RestoreV2"
    attr {
      key: "T"
      value {
        type: DT_FLOAT
      }
    }
    attr {
      key: "_class"
      value {
        list {
          s: "loc:@W"
        }
      }
    }
    attr {
      key: "_output_shapes"
      value {
        list {
          shape {
            dim {
              size: 2
            }
            dim {
              size: 3
            }
          }
        }
      }
    }
    attr {
      key: "use_locking"
      value {
        b: true
      }
    }
    attr {
      key: "validate_shape"
      value {
        b: true
      }
    }
  }
  node {
    name: "save/RestoreV2_1/tensor_names"
    op: "Const"
    attr {
      key: "_output_shapes"
      value {
        list {
          shape {
            dim {
              size: 1
            }
          }
        }
      }
    }
    attr {
      key: "dtype"
      value {
        type: DT_STRING
      }
    }
    attr {
      key: "value"
      value {
        tensor {
          dtype: DT_STRING
          tensor_shape {
            dim {
              size: 1
            }
          }
          string_val: "W_1"
        }
      }
    }
  }
  node {
    name: "save/RestoreV2_1/shape_and_slices"
    op: "Const"
    attr {
      key: "_output_shapes"
      value {
        list {
          shape {
            dim {
              size: 1
            }
          }
        }
      }
    }
    attr {
      key: "dtype"
      value {
        type: DT_STRING
      }
    }
    attr {
      key: "value"
      value {
        tensor {
          dtype: DT_STRING
          tensor_shape {
            dim {
              size: 1
            }
          }
          string_val: ""
        }
      }
    }
  }
  node {
    name: "save/RestoreV2_1"
    op: "RestoreV2"
    input: "save/Const"
    input: "save/RestoreV2_1/tensor_names"
    input: "save/RestoreV2_1/shape_and_slices"
    attr {
      key: "_output_shapes"
      value {
        list {
          shape {
            unknown_rank: true
          }
        }
      }
    }
    attr {
      key: "dtypes"
      value {
        list {
          type: DT_FLOAT
        }
      }
    }
  }
  node {
    name: "save/Assign_1"
    op: "Assign"
    input: "W_1"
    input: "save/RestoreV2_1"
    attr {
      key: "T"
      value {
        type: DT_FLOAT
      }
    }
    attr {
      key: "_class"
      value {
        list {
          s: "loc:@W_1"
        }
      }
    }
    attr {
      key: "_output_shapes"
      value {
        list {
          shape {
            dim {
              size: 2
            }
            dim {
              size: 3
            }
          }
        }
      }
    }
    attr {
      key: "use_locking"
      value {
        b: true
      }
    }
    attr {
      key: "validate_shape"
      value {
        b: true
      }
    }
  }
  node {
    name: "save/RestoreV2_2/tensor_names"
    op: "Const"
    attr {
      key: "_output_shapes"
      value {
        list {
          shape {
            dim {
              size: 1
            }
          }
        }
      }
    }
    attr {
      key: "dtype"
      value {
        type: DT_STRING
      }
    }
    attr {
      key: "value"
      value {
        tensor {
          dtype: DT_STRING
          tensor_shape {
            dim {
              size: 1
            }
          }
          string_val: "b"
        }
      }
    }
  }
  node {
    name: "save/RestoreV2_2/shape_and_slices"
    op: "Const"
    attr {
      key: "_output_shapes"
      value {
        list {
          shape {
            dim {
              size: 1
            }
          }
        }
      }
    }
    attr {
      key: "dtype"
      value {
        type: DT_STRING
      }
    }
    attr {
      key: "value"
      value {
        tensor {
          dtype: DT_STRING
          tensor_shape {
            dim {
              size: 1
            }
          }
          string_val: ""
        }
      }
    }
  }
  node {
    name: "save/RestoreV2_2"
    op: "RestoreV2"
    input: "save/Const"
    input: "save/RestoreV2_2/tensor_names"
    input: "save/RestoreV2_2/shape_and_slices"
    attr {
      key: "_output_shapes"
      value {
        list {
          shape {
            unknown_rank: true
          }
        }
      }
    }
    attr {
      key: "dtypes"
      value {
        list {
          type: DT_FLOAT
        }
      }
    }
  }
  node {
    name: "save/Assign_2"
    op: "Assign"
    input: "b"
    input: "save/RestoreV2_2"
    attr {
      key: "T"
      value {
        type: DT_FLOAT
      }
    }
    attr {
      key: "_class"
      value {
        list {
          s: "loc:@b"
        }
      }
    }
    attr {
      key: "_output_shapes"
      value {
        list {
          shape {
            dim {
              size: 1
            }
            dim {
              size: 3
            }
          }
        }
      }
    }
    attr {
      key: "use_locking"
      value {
        b: true
      }
    }
    attr {
      key: "validate_shape"
      value {
        b: true
      }
    }
  }
  node {
    name: "save/restore_all"
    op: "NoOp"
    input: "^save/Assign"
    input: "^save/Assign_1"
    input: "^save/Assign_2"
  }
  node {
    name: "init"
    op: "NoOp"
    input: "^W/Assign"
    input: "^W_1/Assign"
    input: "^b/Assign"
  }
  versions {
    producer: 24
  }
}
saver_def {
  filename_tensor_name: "save/Const:0"
  save_tensor_name: "save/control_dependency:0"
  restore_op_name: "save/restore_all"
  max_to_keep: 5
  keep_checkpoint_every_n_hours: 10000.0
  version: V2
}
collection_def {
  key: "trainable_variables"
  value {
    bytes_list {
      value: "\n\003W:0\022\010W/Assign\032\010W/read:0"
      value: "\n\005W_1:0\022\nW_1/Assign\032\nW_1/read:0"
      value: "\n\003b:0\022\010b/Assign\032\010b/read:0"
    }
  }
}
collection_def {
  key: "variables"
  value {
    bytes_list {
      value: "\n\003W:0\022\010W/Assign\032\010W/read:0"
      value: "\n\005W_1:0\022\nW_1/Assign\032\nW_1/read:0"
      value: "\n\003b:0\022\010b/Assign\032\010b/read:0"
    }
  }
}
